…
lu', tex_input_tensor_size=4, tex_max_channels=512, tex_norm_layer_type='ada_spade_bn', tex_num_channels=64, tex_pixelwise_bias_type='none', tex_skip_layer_type='ada_conv', tex_upsampling_type='nearest', torch_home='', train_size=1, use_apex=False, use_closure=False, use_half=False, visual_freq=-1, wgv_mode='none', wgv_momentum=0.999, which_epoch='none', world_size=1, wpr_loss_apply_to='pred_target_delta_uvs', wpr_loss_decay_schedule=-1, wpr_loss_type='l1', wpr_loss_weight=0.0, wpr_loss_weight_decay=1.0)
RunnerWrapper(
  (nets): ModuleDict(
    (discriminator): Discriminator(
      (first_conv): Conv2d(6, 64, kernel_size=(3, 3), stride=(1, 1), padding=(1, 1))
      (blocks): ModuleList(
        (0): ResBlock(
          (block_feats): Sequential(
            (0): BatchNorm2d(64, eps=1e-07, momentum=1.0, affine=True, track_running_stats=True)
            (1): LeakyReLU(negative_slope=0.2, inplace=True)
            (2): Conv2d(64, 128, kernel_size=(3, 3), stride=(1, 1), padding=(1, 1))
            (3): BatchNorm2d(128, eps=1e-07, momentum=1.0, affine=True, track_running_stats=True)
            (4): LeakyReLU(negative_slope=0.2, inplace=True)
          )
          (block): Sequential(
            (0): Conv2d(128, 128, kernel_size=(3, 3), stride=(1, 1), padding=(1, 1))
            (1): AvgPool2d(kernel_size=2, stride=2, padding=0)
          )
          (skip): Sequential(
            (0): Conv2d(64, 128, kernel_size=(1, 1), stride=(1, 1))
            (1): AvgPool2d(kernel_size=2, stride=2, padding=0)
          )
        )
        (1): ResBlock(
          (block_feats): Sequential(
            (0): BatchNorm2d(128, eps=1e-07, momentum=1.0, affine=True, track_running_stats=True)
            (1): LeakyReLU(negative_slope=0.2, inplace=True)
            (2): Conv2d(128, 256, kernel_size=(3, 3), stride=(1, 1), padding=(1, 1))
            (3): BatchNorm2d(256, eps=1e-07, momentum=1.0, affine=True, track_running_stats=True)
            (4): LeakyReLU(negative_slope=0.2, inplace=True)
          )
          (block): Sequential(
            (0): Conv2d(256, 256, kernel_size=(3, 3), stride=(1, 1), padding=(1, 1))
            (1): AvgPool2d(kernel_size=2, stride=2, padding=0)
          )
          (skip): Sequential(
            (0): Conv2d(128, 256, kernel_size=(1, 1), stride=(1, 1))
            (1): AvgPool2d(kernel_size=2, stride=2, padding=0)
          )
        )
        (2): ResBlock(
          (block_feats): Sequential(
            (0): BatchNorm2d(256, eps=1e-07, momentum=1.0, affine=True, track_running_stats=True)
            (1): LeakyReLU(negative_slope=0.2, inplace=True)
            (2): Conv2d(256, 512, kernel_size=(3, 3), stride=(1, 1), padding=(1, 1))
            (3): BatchNorm2d(512, eps=1e-07, momentum=1.0, affine=True, track_running_stats=True)
            (4): LeakyReLU(negative_slope=0.2, inplace=True)
          )
          (block): Sequential(
            (0): Conv2d(512, 512, kernel_size=(3, 3), stride=(1, 1), padding=(1, 1))
            (1): AvgPool2d(kernel_size=2, stride=2, padding=0)
          )
          (skip): Sequential(
            (0): Conv2d(256, 512, kernel_size=(1, 1), stride=(1, 1))
            (1): AvgPool2d(kernel_size=2, stride=2, padding=0)
          )
        )
        (3): ResBlock(
          (block_feats): Sequential(
            (0): BatchNorm2d(512, eps=1e-07, momentum=1.0, affine=True, track_running_stats=True)
            (1): LeakyReLU(negative_slope=0.2, inplace=True)
            (2): Conv2d(512, 512, kernel_size=(3, 3), stride=(1, 1), padding=(1, 1))
            (3): BatchNorm2d(512, eps=1e-07, momentum=1.0, affine=True, track_running_stats=True)
            (4): LeakyReLU(negative_slope=0.2, inplace=True)
          )
          (block): Sequential(
            (0): Conv2d(512, 512, kernel_size=(3, 3), stride=(1, 1), padding=(1, 1))
            (1): AvgPool2d(kernel_size=2, stride=2, padding=0)
          )
          (skip): Sequential(
            (0): Conv2d(512, 512, kernel_size=(1, 1), stride=(1, 1))
            (1): AvgPool2d(kernel_size=2, stride=2, padding=0)
          )
        )
        (4): ResBlock(
          (block_feats): Sequential(
            (0): BatchNorm2d(512, eps=1e-07, momentum=1.0, affine=True, track_running_stats=True)
            (1): LeakyReLU(negative_slope=0.2, inplace=True)
            (2): Conv2d(512, 512, kernel_size=(3, 3), stride=(1, 1), padding=(1, 1))
            (3): BatchNorm2d(512, eps=1e-07, momentum=1.0, affine=True, track_running_stats=True)
            (4): LeakyReLU(negative_slope=0.2, inplace=True)
          )
          (block): Sequential(
            (0): Conv2d(512, 512, kernel_size=(3, 3), stride=(1, 1), padding=(1, 1))
            (1): AvgPool2d(kernel_size=2, stride=2, padding=0)
          )
          (skip): Sequential(
            (0): Conv2d(512, 512, kernel_size=(1, 1), stride=(1, 1))
            (1): AvgPool2d(kernel_size=2, stride=2, padding=0)
          )
        )
        (5): ResBlock(
          (block_feats): Sequential(
            (0): BatchNorm2d(512, eps=1e-07, momentum=1.0, affine=True, track_running_stats=True)
            (1): LeakyReLU(negative_slope=0.2, inplace=True)
            (2): Conv2d(512, 512, kernel_size=(3, 3), stride=(1, 1), padding=(1, 1))
            (3): BatchNorm2d(512, eps=1e-07, momentum=1.0, affine=True, track_running_stats=True)
            (4): LeakyReLU(negative_slope=0.2, inplace=True)
          )
          (block): Sequential(
            (0): Conv2d(512, 512, kernel_size=(3, 3), stride=(1, 1), padding=(1, 1))
          )
          (skip): Identity()
        )
      )
      (final_block): Sequential(
        (0): BatchNorm2d(512, eps=1e-07, momentum=1.0, affine=True, track_running_stats=True)
        (1): LeakyReLU(negative_slope=0.2, inplace=True)
      )
      (linear): Conv2d(512, 1, kernel_size=(1, 1), stride=(1, 1))
    )
    Number of parameters: 19517633
    (identity_embedder): Embedder(
      (enc): Sequential(
        (0): Conv2d(6, 64, kernel_size=(3, 3), stride=(1, 1), padding=(1, 1))
        (1): ResBlock(
          (block_feats): Sequential(
            (0): LeakyReLU(negative_slope=0.2)
            (1): Conv2d(64, 128, kernel_size=(3, 3), stride=(1, 1), padding=(1, 1))
            (2): LeakyReLU(negative_slope=0.2, inplace=True)
          )
          (block): Sequential(
            (0): Conv2d(128, 128, kernel_size=(3, 3), stride=(1, 1), padding=(1, 1))
            (1): AvgPool2d(kernel_size=2, stride=2, padding=0)
          )
          (skip): Sequential(
            (0): Conv2d(64, 128, kernel_size=(1, 1), stride=(1, 1))
            (1): AvgPool2d(kernel_size=2, stride=2, padding=0)
          )
        )
        (2): ResBlock(
          (block_feats): Sequential(
            (0): LeakyReLU(negative_slope=0.2)
            (1): Conv2d(128, 256, kernel_size=(3, 3), stride=(1, 1), padding=(1, 1))
            (2): LeakyReLU(negative_slope=0.2, inplace=True)
          )
          (block): Sequential(
            (0): Conv2d(256, 256, kernel_size=(3, 3), stride=(1, 1), padding=(1, 1))
            (1): AvgPool2d(kernel_size=2, stride=2, padding=0)
          )
          (skip): Sequential(
            (0): Conv2d(128, 256, kernel_size=(1, 1), stride=(1, 1))
            (1): AvgPool2d(kernel_size=2, stride=2, padding=0)
          )
        )
        (3): ResBlock(
          (block_feats): Sequential(
            (0): LeakyReLU(negative_slope=0.2)
            (1): Conv2d(256, 512, kernel_size=(3, 3), stride=(1, 1), padding=(1, 1))
            (2): LeakyReLU(negative_slope=0.2, inplace=True)
          )
          (block): Sequential(
            (0): Conv2d(512, 512, kernel_size=(3, 3), stride=(1, 1), padding=(1, 1))
            (1): AvgPool2d(kernel_size=2, stride=2, padding=0)
          )
          (skip): Sequential(
            (0): Conv2d(256, 512, kernel_size=(1, 1), stride=(1, 1))
            (1): AvgPool2d(kernel_size=2, stride=2, padding=0)
          )
        )
        (4): ResBlock(
          (block_feats): Sequential(
            (0): LeakyReLU(negative_slope=0.2)
            (1): Conv2d(512, 512, kernel_size=(3, 3), stride=(1, 1), padding=(1, 1))
            (2): LeakyReLU(negative_slope=0.2, inplace=True)
          )
          (block): Sequential(
            (0): Conv2d(512, 512, kernel_size=(3, 3), stride=(1, 1), padding=(1, 1))
            (1): AvgPool2d(kernel_size=2, stride=2, padding=0)
          )
          (skip): Sequential(
            (0): Conv2d(512, 512, kernel_size=(1, 1), stride=(1, 1))
            (1): AvgPool2d(kernel_size=2, stride=2, padding=0)
          )
        )
        (5): ResBlock(
          (block_feats): Sequential(
            (0): LeakyReLU(negative_slope=0.2)
            (1): Conv2d(512, 512, kernel_size=(3, 3), stride=(1, 1), padding=(1, 1))
            (2): LeakyReLU(negative_slope=0.2, inplace=True)
          )
          (block): Sequential(
            (0): Conv2d(512, 512, kernel_size=(3, 3), stride=(1, 1), padding=(1, 1))
            (1): AvgPool2d(kernel_size=2, stride=2, padding=0)
          )
          (skip): Sequential(
            (0): Conv2d(512, 512, kernel_size=(1, 1), stride=(1, 1))
            (1): AvgPool2d(kernel_size=2, stride=2, padding=0)
          )
        )
      )
      (dec_blocks): ModuleList(
        (0): ResBlock(
          (block_feats): Sequential(
            (0): LeakyReLU(negative_slope=0.2)
            (1): Conv2d(512, 512, kernel_size=(3, 3), stride=(1, 1), padding=(1, 1))
            (2): LeakyReLU(negative_slope=0.2, inplace=True)
          )
          (block): Sequential(
            (0): Conv2d(512, 512, kernel_size=(3, 3), stride=(1, 1), padding=(1, 1))
          )
          (skip): Identity()
        )
        (1): ResBlock(
          (block_feats): Sequential(
            (0): LeakyReLU(negative_slope=0.2)
            (1): Conv2d(512, 512, kernel_size=(3, 3), stride=(1, 1), padding=(1, 1))
            (2): LeakyReLU(negative_slope=0.2, inplace=True)
          )
          (block): Sequential(
            (0): Conv2d(512, 512, kernel_size=(3, 3), stride=(1, 1), padding=(1, 1))
          )
          (skip): Identity()
        )
        (2): ResBlock(
          (block_feats): Sequential(
            (0): LeakyReLU(negative_slope=0.2)
            (1): Conv2d(512, 512, kernel_size=(3, 3), stride=(1, 1), padding=(1, 1))
            (2): LeakyReLU(negative_slope=0.2, inplace=True)
          )
          (block): Sequential(
            (0): Conv2d(512, 512, kernel_size=(3, 3), stride=(1, 1), padding=(1, 1))
          )
          (skip): Identity()
        )
        (3): ResBlock(
          (block_feats): Sequential(
            (0): LeakyReLU(negative_slope=0.2)
            (1): Conv2d(512, 256, kernel_size=(3, 3), stride=(1, 1), padding=(1, 1))
            (2): LeakyReLU(negative_slope=0.2, inplace=True)
          )
          (block): Sequential(
            (0): Conv2d(256, 256, kernel_size=(3, 3), stride=(1, 1), padding=(1, 1))
          )
          (skip): Sequential(
            (0): Conv2d(512, 256, kernel_size=(1, 1), stride=(1, 1))
          )
        )
        (4): ResBlock(
          (block_feats): Sequential(
            (0): LeakyReLU(negative_slope=0.2)
            (1): Conv2d(256, 128, kernel_size=(3, 3), stride=(1, 1), padding=(1, 1))
            (2): LeakyReLU(negative_slope=0.2, inplace=True)
          )
          (block): Sequential(
            (0): Conv2d(128, 128, kernel_size=(3, 3), stride=(1, 1), padding=(1, 1))
          )
          (skip): Sequential(
            (0): Conv2d(256, 128, kernel_size=(1, 1), stride=(1, 1))
          )
        )
        (5): ResBlock(
          (block_feats): Sequential(
            (0): LeakyReLU(negative_slope=0.2)
            (1): Conv2d(128, 64, kernel_size=(3, 3), stride=(1, 1), padding=(1, 1))
            (2): LeakyReLU(negative_slope=0.2, inplace=True)
          )
          (block): Sequential(
            (0): Conv2d(64, 64, kernel_size=(3, 3), stride=(1, 1), padding=(1, 1))
          )
          (skip): Sequential(
            (0): Conv2d(128, 64, kernel_size=(1, 1), stride=(1, 1))
          )
        )
      )
    )
    Number of parameters: 31442304
    (inference_generator): Projector(
      (avgpools): ModuleList(
        (0): AdaptiveAvgPool2d(output_size=(16, 16))
        (1): AdaptiveAvgPool2d(output_size=(16, 16))
        (2): AdaptiveAvgPool2d(output_size=(16, 16))
        (3): AdaptiveAvgPool2d(output_size=(16, 16))
        (4): AdaptiveAvgPool2d(output_size=(16, 16))
        (5): AdaptiveAvgPool2d(output_size=(16, 16))
      )
      (fc_blocks): ModuleList(
        (0): ModuleList(
          (0): Sequential(
            (0): Linear(in_features=512, out_features=512, bias=True)
            (1): Linear(in_features=512, out_features=512, bias=True)
            (2): Linear(in_features=512, out_features=2, bias=True)
          )
          (1): Sequential(
            (0): Linear(in_features=512, out_features=512, bias=True)
            (1): Linear(in_features=512, out_features=512, bias=True)
            (2): Linear(in_features=512, out_features=257, bias=True)
          )
          (2): Sequential(
            (0): Linear(in_features=512, out_features=512, bias=True)
            (1): Linear(in_features=512, out_features=512, bias=True)
            (2): Linear(in_features=512, out_features=2, bias=True)
          )
        )
        (1): ModuleList(
          (0): Sequential(
            (0): Linear(in_features=512, out_features=512, bias=True)
            (1): Linear(in_features=512, out_features=512, bias=True)
            (2): Linear(in_features=512, out_features=2, bias=True)
          )
          (1): Sequential(
            (0): Linear(in_features=512, out_features=512, bias=True)
            (1): Linear(in_features=512, out_features=512, bias=True)
            (2): Linear(in_features=512, out_features=257, bias=True)
          )
          (2): Sequential(
            (0): Linear(in_features=512, out_features=512, bias=True)
            (1): Linear(in_features=512, out_features=512, bias=True)
            (2): Linear(in_features=512, out_features=2, bias=True)
          )
        )
        (2): ModuleList(
          (0): Sequential(
            (0): Linear(in_features=512, out_features=512, bias=True)
            (1): Linear(in_features=512, out_features=512, bias=True)
            (2): Linear(in_features=512, out_features=2, bias=True)
          )
          (1): Sequential(
            (0): Linear(in_features=512, out_features=512, bias=True)
            (1): Linear(in_features=512, out_features=512, bias=True)
            (2): Linear(in_features=512, out_features=257, bias=True)
          )
          (2): Sequential(
            (0): Linear(in_features=512, out_features=512, bias=True)
            (1): Linear(in_features=512, out_features=512, bias=True)
            (2): Linear(in_features=512, out_features=2, bias=True)
          )
        )
        (3): ModuleList(
          (0): Sequential(
            (0): Linear(in_features=512, out_features=512, bias=True)
            (1): Linear(in_features=512, out_features=512, bias=True)
            (2): Linear(in_features=512, out_features=2, bias=True)
          )
          (1): Sequential(
            (0): Linear(in_features=512, out_features=512, bias=True)
            (1): Linear(in_features=512, out_features=512, bias=True)
            (2): Linear(in_features=512, out_features=257, bias=True)
          )
          (2): Sequential(
            (0): Linear(in_features=512, out_features=512, bias=True)
            (1): Linear(in_features=512, out_features=512, bias=True)
            (2): Linear(in_features=512, out_features=2, bias=True)
          )
        )
        (4): ModuleList(
          (0): Sequential(
            (0): Linear(in_features=512, out_features=256, bias=True)
            (1): Linear(in_features=256, out_features=256, bias=True)
            (2): Linear(in_features=256, out_features=2, bias=True)
          )
          (1): Sequential(
            (0): Linear(in_features=512, out_features=256, bias=True)
            (1): Linear(in_features=256, out_features=256, bias=True)
            (2): Linear(in_features=256, out_features=129, bias=True)
          )
          (2): Sequential(
            (0): Linear(in_features=512, out_features=256, bias=True)
            (1): Linear(in_features=256, out_features=256, bias=True)
            (2): Linear(in_features=256, out_features=2, bias=True)
          )
        )
        (5): ModuleList(
          (0): Sequential(
            (0): Linear(in_features=512, out_features=128, bias=True)
            (1): Linear(in_features=128, out_features=128, bias=True)
            (2): Linear(in_features=128, out_features=2, bias=True)
          )
          (1): Sequential(
            (0): Linear(in_features=512, out_features=128, bias=True)
            (1): Linear(in_features=128, out_features=128, bias=True)
            (2): Linear(in_features=128, out_features=65, bias=True)
          )
          (2): Sequential(
            (0): Linear(in_features=512, out_features=128, bias=True)
            (1): Linear(in_features=128, out_features=128, bias=True)
            (2): Linear(in_features=128, out_features=2, bias=True)
          )
        )
      )
    )
    Number of parameters: 7720286
    Generator(
      (blocks): Sequential(
        (0): ResBlock(
          (block_feats): Sequential(
            (0): BatchNorm2d(256, eps=1e-07, momentum=1.0, affine=True, track_running_stats=True)
            (1): LeakyReLU(negative_slope=0.2, inplace=True)
            (2): Conv2d(256, 256, kernel_size=(3, 3), stride=(1, 1), padding=(1, 1))
            (3): AdaptiveNorm2d(
              (norm_layer): BatchNorm2d(256, eps=1e-07, momentum=1.0, affine=False, track_running_stats=True)
            )
            (4): LeakyReLU(negative_slope=0.2, inplace=True)
          )
          (block): Sequential(
            (0): Upsample(scale_factor=2.0, mode=nearest)
            (1): Conv2d(256, 256, kernel_size=(3, 3), stride=(1, 1), padding=(1, 1))
          )
          (skip): Sequential(
            (0): Upsample(scale_factor=2.0, mode=nearest)
            (1): AdaptiveConv2d(256, 256, kernel_size=1, stride=1, padding=1)
          )
        )
        (1): ResBlock(
          (block_feats): Sequential(
            (0): AdaptiveNorm2d(
              (norm_layer): BatchNorm2d(256, eps=1e-07, momentum=1.0, affine=False, track_running_stats=True)
            )
            (1): LeakyReLU(negative_slope=0.2, inplace=True)
            (2): Conv2d(256, 256, kernel_size=(3, 3), stride=(1, 1), padding=(1, 1))
            (3): AdaptiveNorm2d(
              (norm_layer): BatchNorm2d(256, eps=1e-07, momentum=1.0, affine=False, track_running_stats=True)
            )
            (4): LeakyReLU(negative_slope=0.2, inplace=True)
          )
          (block): Sequential(
            (0): Upsample(scale_factor=2.0, mode=nearest)
            (1): Conv2d(256, 256, kernel_size=(3, 3), stride=(1, 1), padding=(1, 1))
          )
          (skip): Sequential(
            (0): Upsample(scale_factor=2.0, mode=nearest)
            (1): AdaptiveConv2d(256, 256, kernel_size=1, stride=1, padding=1)
          )
        )
        (2): ResBlock(
          (block_feats): Sequential(
            (0): AdaptiveNorm2d(
              (norm_layer): BatchNorm2d(256, eps=1e-07, momentum=1.0, affine=False, track_running_stats=True)
            )
            (1): LeakyReLU(negative_slope=0.2, inplace=True)
            (2): Conv2d(256, 256, kernel_size=(3, 3), stride=(1, 1), padding=(1, 1))
            (3): AdaptiveNorm2d(
              (norm_layer): BatchNorm2d(256, eps=1e-07, momentum=1.0, affine=False, track_running_stats=True)
            )
            (4): LeakyReLU(negative_slope=0.2, inplace=True)
          )
          (block): Sequential(
            (0): Upsample(scale_factor=2.0, mode=nearest)
            (1): Conv2d(256, 256, kernel_size=(3, 3), stride=(1, 1), padding=(1, 1))
          )
          (skip): Sequential(
            (0): Upsample(scale_factor=2.0, mode=nearest)
            (1): AdaptiveConv2d(256, 256, kernel_size=1, stride=1, padding=1)
          )
        )
        (3): ResBlock(
          (block_feats): Sequential(
            (0): AdaptiveNorm2d(
              (norm_layer): BatchNorm2d(256, eps=1e-07, momentum=1.0, affine=False, track_running_stats=True)
            )
            (1): LeakyReLU(negative_slope=0.2, inplace=True)
            (2): Conv2d(256, 128, kernel_size=(3, 3), stride=(1, 1), padding=(1, 1))
            (3): AdaptiveNorm2d(
              (norm_layer): BatchNorm2d(128, eps=1e-07, momentum=1.0, affine=False, track_running_stats=True)
            )
            (4): LeakyReLU(negative_slope=0.2, inplace=True)
          )
          (block): Sequential(
            (0): Upsample(scale_factor=2.0, mode=nearest)
            (1): Conv2d(128, 128, kernel_size=(3, 3), stride=(1, 1), padding=(1, 1))
          )
          (skip): Sequential(
            (0): Upsample(scale_factor=2.0, mode=nearest)
            (1): AdaptiveConv2d(256, 128, kernel_size=1, stride=1, padding=1)
          )
        )
        (4): ResBlock(
          (block_feats): Sequential(
            (0): AdaptiveNorm2d(
              (norm_layer): BatchNorm2d(128, eps=1e-07, momentum=1.0, affine=False, track_running_stats=True)
            )
            (1): LeakyReLU(negative_slope=0.2, inplace=True)
            (2): Conv2d(128, 64, kernel_size=(3, 3), stride=(1, 1), padding=(1, 1))
            (3): AdaptiveNorm2d(
              (norm_layer): BatchNorm2d(64, eps=1e-07, momentum=1.0, affine=False, track_running_stats=True)
            )
            (4): LeakyReLU(negative_slope=0.2, inplace=True)
          )
          (block): Sequential(
            (0): Upsample(scale_factor=2.0, mode=nearest)
            (1): Conv2d(64, 64, kernel_size=(3, 3), stride=(1, 1), padding=(1, 1))
          )
          (skip): Sequential(
            (0): Upsample(scale_factor=2.0, mode=nearest)
            (1): AdaptiveConv2d(128, 64, kernel_size=1, stride=1, padding=1)
          )
        )
        (5): ResBlock(
          (block_feats): Sequential(
            (0): AdaptiveNorm2d(
              (norm_layer): BatchNorm2d(64, eps=1e-07, momentum=1.0, affine=False, track_running_stats=True)
            )
            (1): LeakyReLU(negative_slope=0.2, inplace=True)
            (2): Conv2d(64, 32, kernel_size=(3, 3), stride=(1, 1), padding=(1, 1))
            (3): AdaptiveNorm2d(
              (norm_layer): BatchNorm2d(32, eps=1e-07, momentum=1.0, affine=False, track_running_stats=True)
            )
            (4): LeakyReLU(negative_slope=0.2, inplace=True)
          )
          (block): Sequential(
            (0): Upsample(scale_factor=2.0, mode=nearest)
            (1): Conv2d(32, 32, kernel_size=(3, 3), stride=(1, 1), padding=(1, 1))
          )
          (skip): Sequential(
            (0): Upsample(scale_factor=2.0, mode=nearest)
            (1): AdaptiveConv2d(64, 32, kernel_size=1, stride=1, padding=1)
          )
        )
        (6): AdaptiveNorm2d(
          (norm_layer): BatchNorm2d(32, eps=1e-07, momentum=1.0, affine=False, track_running_stats=True)
        )
        (7): LeakyReLU(negative_slope=0.2, inplace=True)
      )
      (heads): ModuleList(
        (0): Sequential(
          (0): Conv2d(32, 2, kernel_size=(3, 3), stride=(1, 1), padding=(1, 1))
          (1): Tanh()
        )
        (1): Sequential(
          (0): Conv2d(32, 3, kernel_size=(3, 3), stride=(1, 1), padding=(1, 1))
          (1): Tanh()
        )
        (2): Sequential(
          (0): Conv2d(32, 1, kernel_size=(3, 3), stride=(1, 1), padding=(1, 1))
        )
      )
    )
    Number of parameters: 4123782
    (keypoints_embedder): PoseEmbedder(
      (mlp): Sequential(
        (0): Linear(in_features=1088, out_features=256, bias=True)
        (1): LeakyReLU(negative_slope=0.2, inplace=True)
        (2): Linear(in_features=256, out_features=256, bias=True)
        (3): LeakyReLU(negative_slope=0.2, inplace=True)
        (4): Linear(in_features=256, out_features=256, bias=True)
        (5): LeakyReLU(negative_slope=0.2, inplace=True)
        (6): Linear(in_features=256, out_features=4096, bias=True)
      )
    )
    Number of parameters: 1463040
    (texture_generator): Projector(
      (avgpools): ModuleList(
        (0): AdaptiveAvgPool2d(output_size=(32, 32))
        (1): AdaptiveAvgPool2d(output_size=(32, 32))
        (2): AdaptiveAvgPool2d(output_size=(32, 32))
        (3): AdaptiveAvgPool2d(output_size=(32, 32))
        (4): AdaptiveAvgPool2d(output_size=(32, 32))
        (5): AdaptiveAvgPool2d(output_size=(32, 32))
      )
      (fc_blocks): ModuleList(
        (0): ModuleList(
          (0): Sequential(
            (0): Linear(in_features=1024, out_features=512, bias=True)
            (1): Linear(in_features=512, out_features=512, bias=True)
            (2): Linear(in_features=512, out_features=513, bias=True)
          )
          (1): Sequential(
            (0): Linear(in_features=1024, out_features=512, bias=True)
            (1): Linear(in_features=512, out_features=512, bias=True)
            (2): Linear(in_features=512, out_features=513, bias=True)
          )
          (2): Sequential(
            (0): Linear(in_features=1024, out_features=512, bias=True)
            (1): Linear(in_features=512, out_features=512, bias=True)
            (2): Linear(in_features=512, out_features=513, bias=True)
          )
          (3): Sequential(
            (0): Linear(in_features=1024, out_features=512, bias=True)
            (1): Linear(in_features=512, out_features=512, bias=True)
            (2): Linear(in_features=512, out_features=513, bias=True)
          )
          (4): Sequential(
            (0): Linear(in_features=1024, out_features=512, bias=True)
            (1): Linear(in_features=512, out_features=512, bias=True)
            (2): Linear(in_features=512, out_features=513, bias=True)
          )
        )
        (1): ModuleList(
          (0): Sequential(
            (0): Linear(in_features=1024, out_features=512, bias=True)
            (1): Linear(in_features=512, out_features=512, bias=True)
            (2): Linear(in_features=512, out_features=513, bias=True)
          )
          (1): Sequential(
            (0): Linear(in_features=1024, out_features=512, bias=True)
            (1): Linear(in_features=512, out_features=512, bias=True)
            (2): Linear(in_features=512, out_features=513, bias=True)
          )
          (2): Sequential(
            (0): Linear(in_features=1024, out_features=512, bias=True)
            (1): Linear(in_features=512, out_features=512, bias=True)
            (2): Linear(in_features=512, out_features=513, bias=True)
          )
          (3): Sequential(
            (0): Linear(in_features=1024, out_features=512, bias=True)
            (1): Linear(in_features=512, out_features=512, bias=True)
            (2): Linear(in_features=512, out_features=513, bias=True)
          )
          (4): Sequential(
            (0): Linear(in_features=1024, out_features=512, bias=True)
            (1): Linear(in_features=512, out_features=512, bias=True)
            (2): Linear(in_features=512, out_features=513, bias=True)
          )
        )
        (2): ModuleList(
          (0): Sequential(
            (0): Linear(in_features=1024, out_features=512, bias=True)
            (1): Linear(in_features=512, out_features=512, bias=True)
            (2): Linear(in_features=512, out_features=513, bias=True)
          )
          (1): Sequential(
            (0): Linear(in_features=1024, out_features=512, bias=True)
            (1): Linear(in_features=512, out_features=512, bias=True)
            (2): Linear(in_features=512, out_features=513, bias=True)
          )
          (2): Sequential(
            (0): Linear(in_features=1024, out_features=512, bias=True)
            (1): Linear(in_features=512, out_features=512, bias=True)
            (2): Linear(in_features=512, out_features=513, bias=True)
          )
          (3): Sequential(
            (0): Linear(in_features=1024, out_features=512, bias=True)
            (1): Linear(in_features=512, out_features=512, bias=True)
            (2): Linear(in_features=512, out_features=513, bias=True)
          )
          (4): Sequential(
            (0): Linear(in_features=1024, out_features=512, bias=True)
            (1): Linear(in_features=512, out_features=512, bias=True)
            (2): Linear(in_features=512, out_features=513, bias=True)
          )
        )
        (3): ModuleList(
          (0): Sequential(
            (0): Linear(in_features=1024, out_features=512, bias=True)
            (1): Linear(in_features=512, out_features=512, bias=True)
            (2): Linear(in_features=512, out_features=257, bias=True)
          )
          (1): Sequential(
            (0): Linear(in_features=1024, out_features=512, bias=True)
            (1): Linear(in_features=512, out_features=512, bias=True)
            (2): Linear(in_features=512, out_features=257, bias=True)
          )
          (2): Sequential(
            (0): Linear(in_features=1024, out_features=512, bias=True)
            (1): Linear(in_features=512, out_features=512, bias=True)
            (2): Linear(in_features=512, out_features=513, bias=True)
          )
          (3): Sequential(
            (0): Linear(in_features=1024, out_features=512, bias=True)
            (1): Linear(in_features=512, out_features=512, bias=True)
            (2): Linear(in_features=512, out_features=257, bias=True)
          )
          (4): Sequential(
            (0): Linear(in_features=1024, out_features=512, bias=True)
            (1): Linear(in_features=512, out_features=512, bias=True)
            (2): Linear(in_features=512, out_features=257, bias=True)
          )
        )
        (4): ModuleList(
          (0): Sequential(
            (0): Linear(in_features=1024, out_features=256, bias=True)
            (1): Linear(in_features=256, out_features=256, bias=True)
            (2): Linear(in_features=256, out_features=129, bias=True)
          )
          (1): Sequential(
            (0): Linear(in_features=1024, out_features=256, bias=True)
            (1): Linear(in_features=256, out_features=256, bias=True)
            (2): Linear(in_features=256, out_features=129, bias=True)
          )
          (2): Sequential(
            (0): Linear(in_features=1024, out_features=256, bias=True)
            (1): Linear(in_features=256, out_features=256, bias=True)
            (2): Linear(in_features=256, out_features=257, bias=True)
          )
          (3): Sequential(
            (0): Linear(in_features=1024, out_features=256, bias=True)
            (1): Linear(in_features=256, out_features=256, bias=True)
            (2): Linear(in_features=256, out_features=129, bias=True)
          )
          (4): Sequential(
            (0): Linear(in_features=1024, out_features=256, bias=True)
            (1): Linear(in_features=256, out_features=256, bias=True)
            (2): Linear(in_features=256, out_features=129, bias=True)
          )
        )
        (5): ModuleList(
          (0): Sequential(
            (0): Linear(in_features=1024, out_features=128, bias=True)
            (1): Linear(in_features=128, out_features=128, bias=True)
            (2): Linear(in_features=128, out_features=65, bias=True)
          )
          (1): Sequential(
            (0): Linear(in_features=1024, out_features=128, bias=True)
            (1): Linear(in_features=128, out_features=128, bias=True)
            (2): Linear(in_features=128, out_features=65, bias=True)
          )
          (2): Sequential(
            (0): Linear(in_features=1024, out_features=128, bias=True)
            (1): Linear(in_features=128, out_features=128, bias=True)
            (2): Linear(in_features=128, out_features=129, bias=True)
          )
          (3): Sequential(
            (0): Linear(in_features=1024, out_features=128, bias=True)
            (1): Linear(in_features=128, out_features=128, bias=True)
            (2): Linear(in_features=128, out_features=65, bias=True)
          )
          (4): Sequential(
            (0): Linear(in_features=1024, out_features=128, bias=True)
            (1): Linear(in_features=128, out_features=128, bias=True)
            (2): Linear(in_features=128, out_features=65, bias=True)
          )
        )
      )
    )
    Number of parameters: 23115550
    Generator(
      (blocks): Sequential(
        (0): ResBlock(
          (block_feats): Sequential(
            (0): BatchNorm2d(512, eps=1e-07, momentum=1.0, affine=True, track_running_stats=True)
            (1): LeakyReLU(negative_slope=0.2, inplace=True)
            (2): Upsample(scale_factor=2.0, mode=nearest)
            (3): Conv2d(512, 512, kernel_size=(3, 3), stride=(1, 1), padding=(1, 1))
            (4): AdaptiveNorm2d(
              (conv_weight): AdaptiveConv2d(512, 512, kernel_size=1, stride=1)
              (conv_bias): AdaptiveConv2d(512, 512, kernel_size=1, stride=1)
              (norm_layer): BatchNorm2d(512, eps=1e-07, momentum=1.0, affine=False, track_running_stats=True)
            )
            (5): LeakyReLU(negative_slope=0.2, inplace=True)
          )
          (block): Sequential(
            (0): Conv2d(512, 512, kernel_size=(3, 3), stride=(1, 1), padding=(1, 1))
          )
          (skip): Sequential(
            (0): Upsample(scale_factor=2.0, mode=nearest)
            (1): AdaptiveConv2d(512, 512, kernel_size=1, stride=1, padding=1)
          )
        )
        (1): ResBlock(
          (block_feats): Sequential(
            (0): AdaptiveNorm2d(
              (conv_weight): AdaptiveConv2d(512, 512, kernel_size=1, stride=1)
              (conv_bias): AdaptiveConv2d(512, 512, kernel_size=1, stride=1)
              (norm_layer): BatchNorm2d(512, eps=1e-07, momentum=1.0, affine=False, track_running_stats=True)
            )
            (1): LeakyReLU(negative_slope=0.2, inplace=True)
            (2): Upsample(scale_factor=2.0, mode=nearest)
            (3): Conv2d(512, 512, kernel_size=(3, 3), stride=(1, 1), padding=(1, 1))
            (4): AdaptiveNorm2d(
              (conv_weight): AdaptiveConv2d(512, 512, kernel_size=1, stride=1)
              (conv_bias): AdaptiveConv2d(512, 512, kernel_size=1, stride=1)
              (norm_layer): BatchNorm2d(512, eps=1e-07, momentum=1.0, affine=False, track_running_stats=True)
            )
            (5): LeakyReLU(negative_slope=0.2, inplace=True)
          )
          (block): Sequential(
            (0): Conv2d(512, 512, kernel_size=(3, 3), stride=(1, 1), padding=(1, 1))
          )
          (skip): Sequential(
            (0): Upsample(scale_factor=2.0, mode=nearest)
            (1): AdaptiveConv2d(512, 512, kernel_size=1, stride=1, padding=1)
          )
        )
        (2): ResBlock(
          (block_feats): Sequential(
            (0): AdaptiveNorm2d(
              (conv_weight): AdaptiveConv2d(512, 512, kernel_size=1, stride=1)
              (conv_bias): AdaptiveConv2d(512, 512, kernel_size=1, stride=1)
              (norm_layer): BatchNorm2d(512, eps=1e-07, momentum=1.0, affine=False, track_running_stats=True)
            )
            (1): LeakyReLU(negative_slope=0.2, inplace=True)
            (2): Upsample(scale_factor=2.0, mode=nearest)
            (3): Conv2d(512, 512, kernel_size=(3, 3), stride=(1, 1), padding=(1, 1))
            (4): AdaptiveNorm2d(
              (conv_weight): AdaptiveConv2d(512, 512, kernel_size=1, stride=1)
              (conv_bias): AdaptiveConv2d(512, 512, kernel_size=1, stride=1)
              (norm_layer): BatchNorm2d(512, eps=1e-07, momentum=1.0, affine=False, track_running_stats=True)
            )
            (5): LeakyReLU(negative_slope=0.2, inplace=True)
          )
          (block): Sequential(
            (0): Conv2d(512, 512, kernel_size=(3, 3), stride=(1, 1), padding=(1, 1))
          )
          (skip): Sequential(
            (0): Upsample(scale_factor=2.0, mode=nearest)
            (1): AdaptiveConv2d(512, 512, kernel_size=1, stride=1, padding=1)
          )
        )
        (3): ResBlock(
          (block_feats): Sequential(
            (0): AdaptiveNorm2d(
              (conv_weight): AdaptiveConv2d(512, 512, kernel_size=1, stride=1)
              (conv_bias): AdaptiveConv2d(512, 512, kernel_size=1, stride=1)
              (norm_layer): BatchNorm2d(512, eps=1e-07, momentum=1.0, affine=False, track_running_stats=True)
            )
            (1): LeakyReLU(negative_slope=0.2, inplace=True)
            (2): Upsample(scale_factor=2.0, mode=nearest)
            (3): Conv2d(512, 256, kernel_size=(3, 3), stride=(1, 1), padding=(1, 1))
            (4): AdaptiveNorm2d(
              (conv_weight): AdaptiveConv2d(256, 256, kernel_size=1, stride=1)
              (conv_bias): AdaptiveConv2d(256, 256, kernel_size=1, stride=1)
              (norm_layer): BatchNorm2d(256, eps=1e-07, momentum=1.0, affine=False, track_running_stats=True)
            )
            (5): LeakyReLU(negative_slope=0.2, inplace=True)
          )
          (block): Sequential(
            (0): Conv2d(256, 256, kernel_size=(3, 3), stride=(1, 1), padding=(1, 1))
          )
          (skip): Sequential(
            (0): Upsample(scale_factor=2.0, mode=nearest)
            (1): AdaptiveConv2d(512, 256, kernel_size=1, stride=1, padding=1)
          )
        )
        (4): ResBlock(
          (block_feats): Sequential(
            (0): AdaptiveNorm2d(
              (conv_weight): AdaptiveConv2d(256, 256, kernel_size=1, stride=1)
              (conv_bias): AdaptiveConv2d(256, 256, kernel_size=1, stride=1)
              (norm_layer): BatchNorm2d(256, eps=1e-07, momentum=1.0, affine=False, track_running_stats=True)
            )
            (1): LeakyReLU(negative_slope=0.2, inplace=True)
            (2): Upsample(scale_factor=2.0, mode=nearest)
            (3): Conv2d(256, 128, kernel_size=(3, 3), stride=(1, 1), padding=(1, 1))
            (4): AdaptiveNorm2d(
              (conv_weight): AdaptiveConv2d(128, 128, kernel_size=1, stride=1)
              (conv_bias): AdaptiveConv2d(128, 128, kernel_size=1, stride=1)
              (norm_layer): BatchNorm2d(128, eps=1e-07, momentum=1.0, affine=False, track_running_stats=True)
            )
            (5): LeakyReLU(negative_slope=0.2, inplace=True)
          )
          (block): Sequential(
            (0): Conv2d(128, 128, kernel_size=(3, 3), stride=(1, 1), padding=(1, 1))
          )
          (skip): Sequential(
            (0): Upsample(scale_factor=2.0, mode=nearest)
            (1): AdaptiveConv2d(256, 128, kernel_size=1, stride=1, padding=1)
          )
        )
        (5): ResBlock(
          (block_feats): Sequential(
            (0): AdaptiveNorm2d(
              (conv_weight): AdaptiveConv2d(128, 128, kernel_size=1, stride=1)
              (conv_bias): AdaptiveConv2d(128, 128, kernel_size=1, stride=1)
              (norm_layer): BatchNorm2d(128, eps=1e-07, momentum=1.0, affine=False, track_running_stats=True)
            )
            (1): LeakyReLU(negative_slope=0.2, inplace=True)
            (2): Upsample(scale_factor=2.0, mode=nearest)
            (3): Conv2d(128, 64, kernel_size=(3, 3), stride=(1, 1), padding=(1, 1))
            (4): AdaptiveNorm2d(
              (conv_weight): AdaptiveConv2d(64, 64, kernel_size=1, stride=1)
              (conv_bias): AdaptiveConv2d(64, 64, kernel_size=1, stride=1)
              (norm_layer): BatchNorm2d(64, eps=1e-07, momentum=1.0, affine=False, track_running_stats=True)
            )
            (5): LeakyReLU(negative_slope=0.2, inplace=True)
          )
          (block): Sequential(
            (0): Conv2d(64, 64, kernel_size=(3, 3), stride=(1, 1), padding=(1, 1))
          )
          (skip): Sequential(
            (0): Upsample(scale_factor=2.0, mode=nearest)
            (1): AdaptiveConv2d(128, 64, kernel_size=1, stride=1, padding=1)
          )
        )
        (6): AdaptiveNorm2d(
          (conv_weight): AdaptiveConv2d(64, 64, kernel_size=1, stride=1)
          (conv_bias): AdaptiveConv2d(64, 64, kernel_size=1, stride=1)
          (norm_layer): BatchNorm2d(64, eps=1e-07, momentum=1.0, affine=False, track_running_stats=True)
        )
        (7): LeakyReLU(negative_slope=0.2, inplace=True)
      )
      (heads): ModuleList(
        (0): Sequential(
          (0): Conv2d(64, 3, kernel_size=(3, 3), stride=(1, 1), padding=(1, 1))
          (1): Tanh()
        )
      )
    )
    Number of parameters: 32541251
  )
  (losses): ModuleDict(
    (adversarial): LossWrapper()
    (csim): (cdist): LossWrapper()
    (feature_matching): LossWrapper()
    (lpips): LossWrapper(
      (loss): PerceptualLoss()
    )
    (perceptual): LossWrapper(
      (nets): ModuleList(
        (0): ModuleList(
          (0): Sequential(
            (0): Conv2d(3, 64, kernel_size=(3, 3), stride=(1, 1), padding=(1, 1))
            (1): ReLU(inplace=True)
          )
          (1): Sequential(
            (0): Conv2d(64, 64, kernel_size=(3, 3), stride=(1, 1), padding=(1, 1))
            (1): ReLU(inplace=True)
            (2): AvgPool2d(kernel_size=2, stride=2, padding=0)
            (3): Conv2d(64, 128, kernel_size=(3, 3), stride=(1, 1), padding=(1, 1))
            (4): ReLU(inplace=True)
          )
          (2): Sequential(
            (0): Conv2d(128, 128, kernel_size=(3, 3), stride=(1, 1), padding=(1, 1))
            (1): ReLU(inplace=True)
            (2): AvgPool2d(kernel_size=2, stride=2, padding=0)
            (3): Conv2d(128, 256, kernel_size=(3, 3), stride=(1, 1), padding=(1, 1))
            (4): ReLU(inplace=True)
          )
          (3): Sequential(
            (0): Conv2d(256, 256, kernel_size=(3, 3), stride=(1, 1), padding=(1, 1))
            (1): ReLU(inplace=True)
            (2): Conv2d(256, 256, kernel_size=(3, 3), stride=(1, 1), padding=(1, 1))
            (3): ReLU(inplace=True)
            (4): Conv2d(256, 256, kernel_size=(3, 3), stride=(1, 1), padding=(1, 1))
            (5): ReLU(inplace=True)
            (6): AvgPool2d(kernel_size=2, stride=2, padding=0)
            (7): Conv2d(256, 512, kernel_size=(3, 3), stride=(1, 1), padding=(1, 1))
            (8): ReLU(inplace=True)
          )
          (4): Sequential(
            (0): Conv2d(512, 512, kernel_size=(3, 3), stride=(1, 1), padding=(1, 1))
            (1): ReLU(inplace=True)
            (2): Conv2d(512, 512, kernel_size=(3, 3), stride=(1, 1), padding=(1, 1))
            (3): ReLU(inplace=True)
            (4): Conv2d(512, 512, kernel_size=(3, 3), stride=(1, 1), padding=(1, 1))
            (5): ReLU(inplace=True)
            (6): AvgPool2d(kernel_size=2, stride=2, padding=0)
            (7): Conv2d(512, 512, kernel_size=(3, 3), stride=(1, 1), padding=(1, 1))
            (8): ReLU(inplace=True)
          )
        )
        (1): ModuleList(
          (0): Sequential(
            (0): Conv2d(3, 64, kernel_size=(3, 3), stride=(1, 1), padding=(1, 1))
            (1): ReLU(inplace=True)
          )
          (1): Sequential(
            (0): Conv2d(64, 64, kernel_size=(3, 3), stride=(1, 1), padding=(1, 1))
            (1): ReLU(inplace=True)
            (2): AvgPool2d(kernel_size=2, stride=2, padding=0)
            (3): Conv2d(64, 128, kernel_size=(3, 3), stride=(1, 1), padding=(1, 1))
            (4): ReLU(inplace=True)
          )
          (2): Sequential(
            (0): Conv2d(128, 128, kernel_size=(3, 3), stride=(1, 1), padding=(1, 1))
            (1): ReLU(inplace=True)
            (2): AvgPool2d(kernel_size=2, stride=2, padding=0)
            (3): Conv2d(128, 256, kernel_size=(3, 3), stride=(1, 1), padding=(1, 1))
            (4): ReLU(inplace=True)
          )
          (3): Sequential(
            (0): Conv2d(256, 256, kernel_size=(3, 3), stride=(1, 1), padding=(1, 1))
            (1): ReLU(inplace=True)
            (2): Conv2d(256, 256, kernel_size=(3, 3), stride=(1, 1), padding=(1, 1))
            (3): ReLU(inplace=True)
            (4): AvgPool2d(kernel_size=2, stride=2, padding=0)
            (5): Conv2d(256, 512, kernel_size=(3, 3), stride=(1, 1), padding=(1, 1))
            (6): ReLU(inplace=True)
          )
          (4): Sequential(
            (0): Conv2d(512, 512, kernel_size=(3, 3), stride=(1, 1), padding=(1, 1))
            (1): ReLU(inplace=True)
            (2): Conv2d(512, 512, kernel_size=(3, 3), stride=(1, 1), padding=(1, 1))
            (3): ReLU(inplace=True)
            (4): AvgPool2d(kernel_size=2, stride=2, padding=0)
            (5): Conv2d(512, 512, kernel_size=(3, 3), stride=(1, 1), padding=(1, 1))
            (6): ReLU(inplace=True)
          )
        )
      )
    )
    (pixelwise): LossWrapper()
    (segmentation): LossWrapper()
    (warping_regularizer): LossWrapper()
  )
)
epoch 1
epoch 2
epoch 3
epoch 4
epoch 5
